models/side_cpu.onnx (onnx, 50098 bytes, 5 tensors)

net.conv1.weight f4 [32, 3, 3, 3]
0.076089405 0.25946194 0.21391748 -0.17477185 0.14433074 -0.4338775 0.46934286 -0.08449203
0.07839765 0.2516368 -0.12233672 0.06093663 -0.0694828 0.20269586 -0.22174364 0.279143
0.18944849 0.03693815 0.20591836 0.33353055 0.23393865 -0.36116278 -0.24154833 -0.27991006
-0.24636878 0.23375432 -0.36350033 0.008817841 0.019191798 0.47759634 0.5034681 0.23799892
-0.0035582513 -0.040016364 -0.28199154 -0.17862912 0.040253162 0.15411013 0.03665768 0.23566698
0.20556627 -0.017277505 0.20427471 0.47224838 0.33030826 -0.1259247 0.39179897 -0.15689152
0.010792147 -0.5086519 -0.011403108 0.05016729 0.113885455 -0.6659858 0.5198535 0.352954
0.15679626 0.19530633 0.009157554 -0.20977718 -0.10617259 -0.3536092 0.0018140918 -0.23777035
-0.035298567 -0.39439225 0.05357494 0.3230659 -0.11598207 -0.024854833 0.3242367 0.048098482
-0.43972114 -0.19063745 0.5623865 -0.24941164 -0.26605392 -0.1117382 0.12898928 0.18522723
0.010329239 0.20928495 -0.081020854 0.09627044 0.31725478 0.43219134 -0.17735836 0.12559463
-0.09453875 -0.0760584 -0.10588884 0.028065853 -0.33807784 0.025019303 0.20877592 -0.40319085
0.41918343 0.4623482 0.23257244 0.003902024 -0.22781773 -0.509872 0.18583755 -0.09707267
0.23349684 0.28892845 0.41166493 -0.07938217 0.1827196 0.3202818 -0.1313929 -0.2653009
-0.25223213 0.3585046 -0.11228179 -0.2914258 -0.20275079 -0.28262448 0.437787 -0.113720894
-0.22142962 -0.17509897 0.34693995 -0.3549415 0.060824674 0.16926329 0.036738306 0.053465053
0.2825647 0.019887676 0.38280365 -0.16193877 -0.1530361 0.31536216 -0.31844926 -0.093439214
-0.052348502 0.44823208 0.30016854 0.15655747 0.10843847 -0.049192864 -0.2310979 0.10875826
-0.22989085 0.09761807 -0.15334398 0.34383795 -0.040147696 -0.48778707 0.31254366 -0.09870433
0.118458614 0.16185701 -0.20571561 0.02502807 0.14726101 0.25680682 -0.18823043 0.15905684
-0.22172718 -0.6772543 0.02508773 0.6233087 0.3098602 0.059867613 0.6472473 0.3021043
-0.014169497 0.64632386 0.0690778 -0.058217235 0.085533455 -0.29245493 -0.10799214 0.07836319
0.22926845 0.15550789 -0.2359451 0.090968736 0.07968254 -0.21086624 -0.21763848 0.084188424
-0.23776259 -0.3857623 -0.07117142 -0.10645073 0.16773441 0.027117932 -0.12107296 0.05465925
0.45026013 -0.068671405 0.3550121 -0.07517533 0.3155981 0.3630858 0.020478182 -0.50351197
-0.17236803 -0.037795164 0.004034771 0.20259206 -0.13419671 0.3942331 -0.785336 -0.25178993
0.1936214 -0.38789162 -0.022793876 -0.15685365 -0.09097704 0.04900044 0.3752879 -0.038113877
0.0017925506 0.15678355 0.3313608 0.015043528 -0.38869342 0.34357572 -0.2705619 -0.24679793
-0.26197237 0.018921033 0.43883175 0.08523865 0.06981804 -0.18042226 -0.0045302184 0.16814269
0.3348195 -0.10501628 0.072059914 0.09737886 -0.0965482 -0.2218317 -0.18234096 0.49289468
-0.030476443 0.026529025 0.54881704 -0.172643 -0.1128306 0.23190472 0.4065367 0.14281237
0.23160423 0.32731822 -0.073934115 0.012595923 0.018220836 0.23323981 0.021933163 -0.05533466
00000000: c3d4 9b3d 32d8 843e 2f0d 5b3e 64f7 32be
00000010: 70cb 133e 3125 debe b54d f03e 280a adbd
00000020: f28e a03d 8ad6 803e ad8b fabd b098 793d
00000030: 004d 8ebd 818f 4f3e c410 63be d5eb 8e3e
00000040: c9fe 413e 754c 173d 43dc 523e 84c4 aa3e
00000050: 9d8d 6f3e 54ea b8be 7258 77be 5f50 8fbe
00000060: 1948 7cbe 4b5d 6f3e b71c babe b578 103c
00000070: 1e38 9d3c 8287 f43e 49e3 003f fdb5 733e
00000080: 8d31 69bb 33e8 23bd 3261 90be 8dea 36be
00000090: 80e0 243d 0ccf 1d3e 5d26 163d af52 713e
000000a0: f77f 523e 8e89 8dbc 642d 513e 8aca f13e
000000b0: 2a1e a93e 68f2 00be e099 c83e 2ca8 20be
000000c0: 8cd1 303c 0337 02bf 1ad4 3abc 377c 4d3d
000000d0: c73c e93d 0c7e 2abf 1e15 053f 63b6 b43e
000000e0: 338f 203e 62fe 473e 9109 163c d4cf 56be
000000f0: 0471 d9bd 440c b5be d2c6 ed3a 127a 73be
00000100: 3b95 10bd c8ed c9be 6571 5b3d e568 a53e
00000110: 0288 edbd 5d9c cbbc 5a02 a63e ea02 453d
00000120: 2123 e1be 7736 43be 90f8 0f3f c465 7fbe
00000130: 3838 88be ffd6 e4bd c415 043e 35ac 3d3e
00000140: f83b 293c cb4e 563e 43ee a5bd 7029 c53d
00000150: 386f a23e 2f48 dd3e 6e9d 35be e19b 003e
00000160: 889d c1bd 82c4 9bbd 40dc d8bd 5cea e53c
00000170: 8a18 adbe 48f5 cc3c 5bc9 553e 086f cebe
00000180: 369f d63e e7b8 ec3e 7827 6e3e 19b9 7f3b
00000190: 0d49 69be f986 02bf 334c 3e3e 09ce c6bd
000001a0: cc19 6f3e 6eee 933e bfc5 d23e 1f93 a2bd
000001b0: d91a 3b3e fafb a33e dc8b 06be 85d5 87be
000001c0: 9224 81be ea8d b73e fff3 e5bd c335 95be
000001d0: e79d 4fbe 28b4 90be 9e25 e03e 80e6 e8bd
000001e0: 72be 62be 254d 33be 1da2 b13e e4ba b5be
000001f0: 4b23 793d 5b53 2d3e e87a 163d 2cfe 5a3d
00000200: 52ac 903e 7beb a23c d7fe c33e 47d3 25be
00000210: 7fb5 1cbe 2677 a13e c80b a3be 0f5d bfbd
00000220: 626b 56bd ad7e e53e b1af 993e 9a50 203e
00000230: fd14 de3d 757e 49bd eea4 6cbe a7bc de3d
00000240: 8268 6bbe fceb c73d 3406 1dbe 870b b03e
00000250: e971 24bd 3abf f9be b905 a03e 7f25 cabd
00000260: 6e9a f23d d8bd 253e 1da7 52be ab07 cd3c
00000270: 97cb 163e 2f7c 833e 7abf 40be ccdf 223e
00000280: 730c 63be 8a60 2dbf c884 cd3c 2991 1f3f
00000290: ffa5 9e3e be37 753d 00b2 253f 6aad 9a3e
000002a0: 2e27 68bc 7b75 253f a978 8d3d 3275 6ebd
000002b0: 2a2c af3d a7bc 95be fc2a ddbd e17c a03d
000002c0: 59c5 6a3e 763d 1f3e 989b 71be d14d ba3d
000002d0: 9930 a33d 52ed 57be 9fdc 5ebe fb6a ac3d
000002e0: 0978 73be a382 c5be 52c2 91bd d702 dabd
000002f0: 92c2 2b3e 6d26 de3c 1af5 f7bd 61e2 5f3d
00000300: 7f88 e63e 98a3 8cbd 25c4 b53e 86f5 99bd
00000310: 1396 a13e 62e6 b93e dcc1 a73c 29e6 00bf
00000320: 3f81 30be 1acf 1abd 1d36 843b 4b74 4f3e
00000330: dd6a 09be ecd8 c93e c80b 49bf 9cea 80be
00000340: b044 463e bb99 c6be 39ba babc 3e9e 20be
00000350: 2c52 babd afb4 483d bc25 c03e 4c1d 1cbd
00000360: 04f4 ea3a de8b 203e 1fa8 a93e 2179 763c
00000370: d302 c7be 28e9 af3e 1787 8abe 99b8 7cbe
00000380: 3e21 86be 4800 9b3c 8eae e03e 9a91 ae3d
00000390: c3fc 8e3d 9dc0 38be 3a72 94bb 992d 2c3e
000003a0: 766d ab3e c712 d7bd 2694 933d 916e c73d
000003b0: 10bb c5bd d927 63be 97b7 3abe b15c fc3e
000003c0: bca9 f9bc 6653 d93c 467f 0c3f 54c9 30be
000003d0: bb13 e7bd 6e78 6d3e 9425 d03e 683d 123e
000003e0: a929 6d3e 4196 a73e c56a 97bd 215f 4e3c
000003f0: dd43 953c 6bd6 6e3e 2dad b33c 99a6 62bd

net.conv1.bias f4 [32]
-0.053508718 0.010852052 0.0095122345 -0.016026596 -0.017883293 -0.12821198 -0.13145588 -0.042292994
-0.07211583 -0.032951854 -0.0008220952 -0.060492292 -0.0058691995 0.018357435 -0.07787593 -0.012383612
-0.11354295 -0.12616554 4.5431276e-05 -0.0102271605 -0.0868802 0.070202574 0.01519731 0.007293703
0.02041245 -0.011649098 0.0149755515 0.0013932071 -0.05293638 0.0020188228 0.0003205517 -0.010305884
00000000: f52b 5bbd cecc 313c 34d9 1b3c 354a 83bc
00000010: fc7f 92bc 004a 03be 5f9c 06be 6b3b 2dbd
00000020: 77b1 93bd 86f8 06bd e081 57ba c4c6 77bd
00000030: 6a52 c0bb 5562 963c 6a7d 9fbd a2e4 4abc
00000040: 3589 e8bd 8a31 01be 768d 3e38 d28f 27bc
00000050: 3fee b1bd 5ec6 8f3d 23fe 783c 0400 ef3b
00000060: 0338 a73c dcdb 3ebc 045c 753c 469c b63a
00000070: d1d3 58bd 3a4e 043b b90f a839 03da 28bc

net.conv2.weight f4 [32, 32, 3, 3]
-0.0029080012 -0.0314669 -0.14582196 -0.08739307 0.058518697 0.037195 -0.04847893 -0.04637262
-0.08418189 -0.048525818 -0.021234216 -0.025978962 -0.024193656 0.066025786 0.09950623 -0.013795858
-0.023068616 0.008441011 -0.106924474 0.06099395 -0.08179286 -0.100831315 0.014336311 0.12764674
-0.045015965 -0.0677401 -0.10929819 -0.013845064 -0.034594018 0.018351316 0.13874072 0.060068384
0.04896866 -0.08034964 -0.11249143 0.0030111463 0.013916095 -0.17590865 -0.0019909176 -0.051772196
0.03007141 0.07122368 -0.029976534 -0.032484744 0.14283714 0.0052784537 -0.04879835 -0.047902558
-0.049094032 -0.0111720525 0.08995018 0.028471775 0.04059542 0.053527728 0.080806 -0.1387885
-0.07022955 0.20086852 -0.012666724 -0.0045339065 0.045455936 -0.0023130083 0.05916072 0.023031283
0.10323968 -0.020895569 0.09909033 0.09176729 -0.004492215 -0.17962854 -0.06728145 -0.026364524
-0.059889074 -0.01404363 0.023945015 -0.2306156 0.1085972 0.068278186 -0.09806675 0.073540084
-0.12709208 -0.08557465 0.017712448 0.2527809 -0.067234136 0.044681106 0.12435037 0.025441159
0.06620439 -0.04408168 0.011045062 -0.14135265 0.01154763 -0.025561938 -0.045465045 -0.08650698
0.13329364 0.03076819 -0.06687444 0.1404589 -0.028459718 -0.011177092 0.007970124 -0.06497857
0.12473093 -0.09598939 -0.06422604 -0.17141603 -0.02496149 0.122067645 0.09405439 0.09568426
-0.09423919 -0.15649079 -0.023240067 0.021294715 -0.050393682 -0.027770933 0.024270287 -0.011930681
-0.0048070443 -0.17426737 0.07146177 0.0147146955 -0.10152024 0.059690226 0.06770607 -0.07986777
0.03371427 -0.017371686 0.019547885 -0.092803605 -0.019278862 -0.10591123 -0.025542887 -0.08989305
0.003649583 -0.03898486 0.01992123 -0.06976449 0.044257946 0.13663879 0.14247905 -0.099727064
-0.0703429 0.08411667 -0.16184118 0.009232647 -0.059285045 -0.015267922 -0.048676226 0.006678167
0.0784829 0.028255712 -0.21114415 0.027032597 0.027888836 -0.12045506 -0.15968981 0.063224144
0.042667877 -0.031218918 0.01545285 0.19538492 0.09995474 0.035243206 0.008180735 -0.053625513
-0.059437174 0.10274359 -0.025237361 -0.078302145 0.023773413 -0.03356403 -0.031128103 0.029540138
-0.0731357 0.11987321 0.046710778 -0.09650238 -0.017795479 0.041079976 0.10042168 -0.046541814
0.10886917 0.010128886 -0.070219554 -0.018779533 -0.10878393 -0.07156756 0.05605136 -0.044889387
-0.060126252 0.064050704 -0.0199547 0.006981764 -0.30356947 0.022334859 -0.06771544 -0.05540069
0.03533584 0.04741963 0.053957943 0.043451197 -0.0058462746 0.0598969 -0.017630575 0.067216285
0.19758421 0.15664442 -0.08667487 0.031350587 -0.07288262 0.058932234 -0.08149239 -0.05894075
0.035460684 0.05458113 -0.18587022 -0.028231865 0.11957701 0.04274234 -0.0859426 -0.108486146
-0.05774335 0.031183837 -0.071151376 0.015803516 0.053489547 0.07771166 -0.062401254 0.072815716
0.035830323 -0.029690798 0.03436647 0.1388075 -0.058161363 -0.02064767 0.041533116 -0.20954406
-0.026964135 -0.012442493 0.03980734 0.016521484 0.002721418 0.063279234 0.10053438 -0.006740838
-0.123749904 -0.041999795 -0.025133314 0.04568091 0.010993624 0.03999535 -0.023714151 -0.0012237581
00000000: 2a94 3ebb 70e3 00bd 5a52 15be 23fb b2bd
00000010: 4db1 6f3d c959 183d d891 46bd 37f1 3dbd
00000020: 8e67 acbd 02c3 46bd 61f3 adbc d5d1 d4bc
00000030: c631 c6bc 8738 873d ecc9 cb3d 0608 62bc
00000040: 65fa bcbc 2b4c 0a3c 38fb dabd cbd4 793d
00000050: 0483 a7bd a680 cebd d9e2 6a3c d4b5 023e
00000060: a962 38bd 52bb 8abd bbd7 dfbd 68d6 62bc
00000070: 75b2 0dbd 8055 963c 0c12 0e3e 440a 763d
00000080: 5d93 483d 5a8e a4bd e861 e6bd a756 453b
00000090: 5500 643c 6621 34be 0e7a 02bb 150f 54bd
000000a0: 5158 f63c b9dd 913d 5991 f5bc b90e 05bd
000000b0: e643 123e e1f6 ac3b c7e0 47bd 7935 44bd
000000c0: d316 49bd fc0a 37bc cd37 b83d a43d e93c
000000d0: 6247 263d e43f 5b3d 9e7d a53d 931e 0ebe
000000e0: 83d4 8fbd 7ab0 4d3e 1788 4fbc 2a91 94bb
000000f0: 0130 3a3d d795 17bb 8352 723d 1aac bc3c
00000100: 536f d33d 2f2d abbc dfef ca3d 7df0 bb3d
00000110: 6e33 93bb 8bf0 37be dbca 89bd 6afa d7bc
00000120: 3f4e 75bd 4117 66bc 5628 c43c 7f26 6cbe
00000130: 3568 de3d 6fd5 8b3d 38d7 c8bd 2f9c 963d
00000140: 6d24 02be c341 afbd b219 913c 806c 813e
00000150: 0db2 89bd 8903 373d 68ab fe3d fa69 d03c
00000160: 2b96 873d fe8e 34bd 59f6 343c c0be 10be
00000170: 4532 3d3c 4567 d1bc 8e39 3abd 922a b1bd
00000180: 217e 083e 920d fc3c 77f5 88bd 75d4 0f3e
00000190: 5b24 e9bc 1f20 37bc 1f95 023c 7c13 85bd
000001a0: ee72 ff3d 1696 c4bd f188 83bd af87 2fbe
000001b0: 0a7c ccbc 9afe f93d 979f c03d 1cf6 c33d
000001c0: 7a00 c1bd 1f3f 20be f461 bebc 4172 ae3c
000001d0: 9b69 4ebd de7f e3bc 7bd2 c63c e778 43bc
000001e0: 6984 9dbb 2573 32be 8c5a 923d e815 713c
000001f0: d8e9 cfbd bd7d 743d 7ba9 8a3d b791 a3bd
00000200: f917 0a3d 114f 8ebc e322 a03c d10f bebd
00000210: b4ee 9dbc fde7 d8bd 513f d1bc d919 b8bd
00000220: d82d 6f3b 97ae 1fbd d931 a33c afe0 8ebd
00000230: d247 353d 0aeb 0b3e 07e6 113e b43d ccbd
00000240: f00f 90bd 5c45 ac3d b2b9 25be 8744 173c
00000250: e0d4 72bd 4e26 7abc b960 47bd 86d4 da3b
00000260: a5bb a03d 8678 e73c 2c36 58be 7773 dd3c
00000270: 2177 e43c 24b1 f6bd ba85 23be a97b 813d
00000280: 83c4 2e3d d1be ffbc f32d 7d3c fc12 483e
00000290: 12b5 cc3d 2e5b 103d 7d08 063c 6da6 5bbd
000002a0: 6574 73bd 3b6b d23d 95be cebc e05c a0bd
000002b0: 76c0 c23c 707a 09bd 5d00 ffbc 29fe f13c
000002c0: 2bc8 95bd 1680 f53d cd53 3f3d 0aa3 c5bd
000002d0: d3c7 91bc 7a43 283d e2a9 cd3d a1a2 3ebd
000002e0: cdf6 de3d a1f3 253c 45cf 8fbd 89d7 99bc
000002f0: 1cca debd 0392 92bd 1c96 653d efdd 37bd
00000300: f246 76bd 042d 833d 0a78 a3bc 48c7 e43b
00000310: 756d 9bbe 98f7 b63c 65ae 8abd d5eb 62bd
00000320: 50bc 103d 163b 423d 0103 5d3d e2f9 313d
00000330: 1b92 bfbb 7456 753d ff6d 90bc b1a8 893d
00000340: 8453 4a3e 6567 203e 9882 b1bd 7969 003d
00000350: 7c43 95bd ed62 713d 7be5 a6bd db6b 71bd
00000360: 393f 113d 7790 5f3d c354 3ebe 8346 e7bc
00000370: cbe4 f43d 9812 2f3d ad02 b0bd fc2d debd
00000380: 4a84 6cbd 3f75 ff3c d0b7 91bd 6076 813c
00000390: db17 5b3d 4a27 9f3d 7598 7fbd 6820 953d
000003a0: d1c2 123d 1e3a f3bc dbc3 0c3d 8e23 0e3e
000003b0: 9c3a 6ebd 4d25 a9bc a11e 2a3d b892 56be
000003c0: e4e3 dcbc 99db 4bbc 050d 233d 1058 873c
000003d0: d159 323b 8b98 813d f8e4 cd3d 3fe2 dcbb
000003e0: 9770 fdbd fa07 2cbd 61e4 cdbc e81b 3b3d
000003f0: 9a1e 343c 2ad2 233d 2e44 c2bc 8266 a0ba

net.conv2.bias f4 [32]
-0.011739207 0.029419525 -0.03448878 0.0073135393 -0.04069334 -0.061828103 -0.030517079 0.003103177
0.011773942 -0.03545529 -0.008483742 -0.02456538 -0.01991215 -0.01661962 -0.028506342 -0.0018163023
-0.044613 -0.05258279 -0.05829669 -0.08990828 -0.056318823 -0.16132945 -0.03528851 -0.033678804
-0.063382365 -0.11486649 -0.025737923 -0.0040993146 -0.01354998 0.012167029 -0.010177069 -0.013907688
00000000: ce55 40bc 3701 f13c 1b44 0dbd 6aa6 ef3b
00000010: 0fae 26bd 773f 7dbd f4fe f9bc ac5e 4b3b
00000020: 7ee7 403c 9139 11bd 65ff 0abc 563d c9bc
00000030: ce1e a3bc df25 88bc 2286 e9bc fe10 eeba
00000040: 1fbc 36bd 0d61 57bd 83c8 6ebd d521 b8bd
00000050: 91ae 66bd 8c33 25be af8a 10bd c9f2 09bd
00000060: 9dce 81bd 1f3f ebbd 56d8 d2bc 8b53 86bb
00000070: bc00 5ebc 3858 473c b9bd 26bc 12dd 63bc

onnx::MatMul_17 f4 [2048, 1]
-0.018679922 0.014360555 0.016107503 0.04660291 -0.004169728 -0.007907293 -0.0033045008 0.034412574
-0.0015196338 0.031994477 -0.017354181 -0.035704385 0.011935523 0.008360037 -0.038725067 0.020951487
-0.0339953 0.045153834 0.0064871246 0.016674679 -0.04214311 -0.036016818 0.049426623 -0.017528772
0.02551451 0.023241922 0.040620457 -0.0043345923 0.058081936 0.01978108 0.027014606 -0.043307826
0.02424569 -0.007893374 -0.0016462313 0.012939075 -0.06046592 0.010692813 -0.021898564 -0.010293746
-0.025714353 0.032067027 -0.006822236 -0.008645865 -0.00883904 -0.041166212 0.01033909 0.025267571
0.083656296 0.02773728 -0.00061511947 0.048116412 -0.017519133 0.030468265 -0.0340696 0.031046133
0.0003242347 -0.012610155 0.03942645 0.0135646835 -0.0018302891 -0.012685882 0.00061989954 -0.011226192
0.02291383 0.055556264 0.010183155 0.09236191 0.10803458 0.055218853 0.05168482 0.030093545
0.038017027 -0.044019505 -0.01178996 -0.026533276 -0.05161593 -0.031198952 0.025759803 0.0012238906
0.018787997 0.03258146 -0.041617677 -0.029137935 -0.024043068 -0.021521451 0.06841654 0.042863365
-0.0051526455 0.00735346 -0.045559168 0.02027157 0.010287296 -0.021692835 0.009961201 0.055160373
-0.0036363716 0.049297076 -0.02249548 -0.014491629 0.031117313 0.10095707 0.009906886 -0.00029017113
-0.02705614 0.08924981 0.068144865 -0.02814911 -0.018210573 0.010116582 0.03946542 0.027892767
0.036688317 0.035041854 0.020855188 -0.03455482 -0.006481363 0.002726434 0.024255838 0.029636059
-0.008839376 0.027548116 -0.017913079 -0.0084520485 -0.0040855575 -0.002377693 -0.020986719 0.03583792
-0.017140636 0.034111537 0.044607483 0.0126302345 0.014984981 -0.0018432419 -0.024752563 -0.056736473
0.00038645498 -0.011211834 0.018613176 0.027596781 -0.004978449 0.021788107 -0.024195682 -0.018940253
0.02584104 0.01386972 0.014400892 0.0057137436 0.015346924 -0.022247417 -0.00032118295 0.021983491
-0.017085906 -0.0015273817 0.057703573 -0.01869309 0.01022452 0.02267716 0.0130392015 -0.011202483
-0.028914958 -0.049554296 -0.004581983 -0.0031308823 -0.019635154 -0.020130595 0.067315586 0.053200476
0.0043986416 0.051445413 0.046900827 -0.023419896 0.03606831 0.0030691156 4.6141016e-05 0.0001666465
0.015791863 -0.012301924 -0.030498154 -0.025627231 -0.004124912 0.025205627 -0.00916397 -0.036742855
0.023082485 -0.015438485 -0.014705337 0.013825499 -0.005237368 -0.046263654 0.07608326 -0.031670105
-0.052443545 -0.0345473 0.009587753 0.0032997841 -0.0027590555 -0.032243464 0.008444176 -0.018902304
0.031005796 -0.058012493 0.007889803 -0.036409926 -0.020480298 -0.028396973 -0.05802041 0.014335642
-0.06449246 -0.0071101678 -0.050371483 0.0136772 -0.009075338 -0.052665614 -0.06775833 -0.034573287
-0.045281816 -0.036924426 -0.06059087 0.031454436 -0.019972982 -0.031933993 0.028786816 -0.07143634
-0.03902344 -0.03304929 0.015114796 -0.042152297 -0.035937198 -0.033735525 0.0026825573 -0.036236946
-0.011106775 -0.02551694 -0.020725455 -0.08205382 -0.0051642875 -0.05517786 -0.016032666 -0.019673642
-0.029017804 -0.013612864 0.045209255 -0.058864474 -0.04723585 -0.039093535 -0.033777904 -0.02055902
0.026103416 -0.0077746785 0.0017043275 0.01202047 -0.020765595 0.023315655 0.034922466 -0.028692845
00000000: a306 99bc 8948 6b3c e2f3 833c b1e2 3e3d
00000010: 37a2 88bb 978d 01bc 5390 58bb 33f4 0c3d
00000020: 732e c7ba a40c 033d 5b2a 8ebc c33e 12bd
00000030: 368d 433c 89f8 083c 2d9e 1ebd 74a2 ab3c
00000040: a83e 0bbd 3af3 383d f291 d43b 5699 883c
00000050: 419e 2cbd 5f86 13bd 9273 4a3d 8098 8fbc
00000060: ce03 d13c d865 be3c a361 263d 3209 8ebb
00000070: 53e7 6d3d ee0b a23c bc4d dd3c 8c63 31bd
00000080: e69e c63c 3653 01bc 5bc6 d7ba 6afe 533c
00000090: 1dab 77bd e930 2f3c 9e64 b3bc 1aa7 28bc
000000a0: e8a6 d2bc b758 033d 108d dfbb 63a7 0dbc
000000b0: 9fd1 10bc e79d 28bd 4965 293c f0fd ce3c
000000c0: fe53 ab3d 4b39 e33c f83f 21ba b715 453d
000000d0: 4984 8fbc 9598 f93c 918c 0bbd 7654 fe3c
000000e0: 0bfe a939 d39a 4ebc a17d 213d 683e 5e3c
000000f0: 50e6 efba 72d8 4fbc c180 223a 10ee 37bc
00000100: c9b5 bb3c f78e 633d 3fd7 263c 3e28 bd3d
00000110: 3c41 dd3d 2a2d 623d 76b3 533d bd86 f63c
00000120: beb7 1b3d cc4d 34bd ad2a 41bc 505c d9bc
00000130: 3a6b 53bd f294 ffbc 3906 d33c f46a a03a
00000140: 49e9 993c 2374 053d 4c77 2abd aeb2 eebc
00000150: f8f5 c4bc c14d b0bc f91d 8c3d 7f91 2f3d
00000160: 86d7 a8bb 4bf5 f03b 409c 3abd 9010 a63c
00000170: 0c8c 283c 2cb5 b1bc 4e34 233c d8ef 613d
00000180: 3150 6ebb bbeb 493d 7148 b8bc 4c6e 6dbc
00000190: bce9 fe3c 95c2 ce3d 7e50 223c 1c22 98b9
000001a0: d7a4 ddbc 9bc8 b63d 898f 8b3d f698 e6bc
000001b0: 572e 95bc 05c0 253c 7ea6 213d 5f7f e43c
000001c0: 7d46 163d 0c88 0f3d 80d8 aa3c 5b89 0dbd
000001d0: 9d61 d4bb f9ad 323b 2eb4 c63c 52c7 f23c
000001e0: 08d3 10bc 96ac e13c 73be 92bc 767a 0abc
000001f0: 24e0 85bb 12d3 1bbb 57ec abbc c8ca 123d
00000200: 856a 8cbc 8ab8 0b3d 56b6 363d 0bef 4e3c
00000210: 9183 753c ef98 f1ba e3c5 cabc 8164 68bd
00000220: 1c9d ca39 d7b1 37bc a97a 983c a512 e23c
00000230: 4222 a3bb f97c b23c 0636 c6bc 9728 9bbc
00000240: 97b0 d33c d23d 633c b8f1 6b3c 5b3a bb3b
00000250: aa71 7b3c 3740 b6bc 7264 a8b9 b916 b43c
00000260: bef7 8bbc 6d32 c8ba 955a 6c3d 4022 99bc
00000270: bf84 273c 74c5 b93c 60a2 553c 9f8a 37bc
00000280: 10df ecbc 72f9 4abd 7624 96bb 7d2f 4dbb
00000290: e7d9 a0bc ebe8 a4bc c1dc 893d bee8 593d
000002a0: 7b22 903b 6db8 523d 151b 403d 15db bfbc
000002b0: 5dbc 133d 3723 493b 8a87 4138 d4bd 2e39
000002c0: f05d 813c 028e 49bc 44d7 f9bc 33f0 d1bc
000002d0: 452a 87bb 087c ce3c 7a24 16bc ad7f 16bd
000002e0: 7b17 bd3c b3f1 7cbc a7ee 70bc 5984 623c
000002f0: 3a9e abbb f57e 3dbd 8ad1 9b3d 83b8 01bd
00000300: 0bcf 56bd 7881 0dbd f315 1d3c 3141 583b
00000310: 45d1 34bb b911 04bd 7159 0a3c 01d9 9abc
00000320: deff fd3c 829e 6dbd 3b44 013c 9322 15bd
00000330: 4cc6 a7bc c5a0 e8bc cfa6 6dbd 0ae0 6a3c
00000340: 9f14 84bd 69fc e8bb 5452 4ebd 5616 603c
00000350: bab0 14bc e6b7 57bd e1c4 8abd b89c 0dbd
00000360: 6d79 39bd 113e 17bd 222e 78bd 5ed6 003d
00000370: 619e a3bc 38cd 02bd 54d2 eb3c 374d 92bd
00000380: 0bd7 1fbd b15e 07bd 0da4 773c e3a7 2cbd
00000390: e232 13bd 432e 0abd d8cd 2f3b 316d 14bd
000003a0: 31f9 35bc e708 d1bc 6ec8 a9bc d50b a8bd
000003b0: 2f39 a9bb 2e02 62bd f056 83bc 9e2a a1bc
000003c0: bfb6 edbc 7d08 5fbc 572d 393d e01b 71bd
000003d0: 617a 41bd 8b20 20bd b35a 0abd 646b a8bc
000003e0: d5d6 d53c bbc2 febb be63 df3a 81f1 443c
000003f0: 9c1c aabc 7900 bf3c dc0a 0f3d 420d ebbc
